LSTM Model/lightning_logs/version_3/checkpoints/epoch=299-step=600.ckpt (torch, 6962 bytes, 12 tensors)

lstm.weight_ih_l0 f4 [4, 1]
000000 a0 16 21 40 a1 43 08 bf 48 2b 0a 40 77 b0 c2 3f
       2.517006 -0.53228194 2.1588917 1.5210103

lstm.weight_hh_l0 f4 [4, 1]
000000 c1 ea 68 40 f0 5d 69 40 55 c5 65 40 ba ae e2 3f
       3.6393282 3.6463585 3.5901692 1.7709572

lstm.bias_ih_l0 f4 [4]
000000 32 12 d2 bf 5e 57 bc 3f 45 2c 71 bd cb 26 b0 3e
       -1.6411803 1.4714162 -0.05888011 0.34404597

lstm.bias_hh_l0 f4 [4]
000000 d5 37 09 3d 5e 6c 62 3e fd fd 83 bf b5 27 0a 3f
       0.03350051 0.22111651 -1.0311886 0.5396684

exp_avg f4 [4, 1]
000000 ba cd e8 b8 d1 3d 95 b7 28 12 c8 b8 dd b5 ea b9
       -0.000111009416 -1.779097e-05 -9.540125e-05 -0.00044767457

exp_avg_sq f4 [4, 1]
000000 d7 02 a1 3a c2 d3 94 39 96 74 ae 3a 5b ed 18 3c
       0.0012284172 0.00028386532 0.0013309892 0.009333934

exp_avg f4 [4, 1]
000000 95 85 30 b8 34 50 fa b6 02 fb 0c b8 7c 2d db b9
       -4.2086078e-05 -7.4599175e-06 -3.361237e-05 -0.00041804824

exp_avg_sq f4 [4, 1]
000000 7d 81 eb 38 06 77 54 38 11 53 01 38 5a 22 96 3a
       0.00011229792 5.0655588e-05 3.083336e-05 0.0011454329

exp_avg f4 [4]
000000 df 65 3a b9 f9 25 f9 b7 ec 2f cc b8 dd fa 01 ba
       -0.00017776292 -2.9700795e-05 -9.736404e-05 -0.0004958341

exp_avg_sq f4 [4]
000000 11 ca 47 3b 4e c5 0e 3a a5 bb 91 3b 63 a9 25 3c
       0.0030485431 0.0005446271 0.004447418 0.010111186

exp_avg f4 [4]
000000 de 65 3a b9 f9 25 f9 b7 ec 2f cc b8 dd fa 01 ba
       -0.00017776291 -2.9700795e-05 -9.736404e-05 -0.0004958341

exp_avg_sq f4 [4]
000000 11 ca 47 3b 4e c5 0e 3a a5 bb 91 3b 64 a9 25 3c
       0.0030485431 0.0005446271 0.004447418 0.010111187
